{"config": {"layers": [{"config": {"sparse": false, "batch_input_shape": [null, 320, 320, 3], "dtype": "float32", "name": "input_1"}, "name": "input_1", "inbound_nodes": [], "class_name": "InputLayer"}, {"config": {"trainable": true, "name": "reflection_padding2d_1"}, "name": "reflection_padding2d_1", "inbound_nodes": [[["input_1", 0, 0, {}]]], "class_name": "ReflectionPadding2D"}, {"config": {"padding": "same", "trainable": true, "bias_constraint": null, "activation": "linear", "name": "conv2d_1", "strides": [1, 1], "data_format": "channels_last", "kernel_constraint": null, "bias_initializer": {"config": {}, "class_name": "Zeros"}, "filters": 64, "bias_regularizer": null, "use_bias": true, "kernel_initializer": {"config": {"mode": "fan_avg", "seed": null, "scale": 1.0, "distribution": "uniform"}, "class_name": "VarianceScaling"}, "dilation_rate": [1, 1], "kernel_regularizer": null, "activity_regularizer": null, "kernel_size": [9, 9]}, "name": "conv2d_1", "inbound_nodes": [[["reflection_padding2d_1", 0, 0, {}]]], "class_name": "Conv2D"}, {"config": {"momentum": 0.99, "axis": -1, "name": "batch_normalization_1", "epsilon": 0.001, "gamma_initializer": {"config": {}, "class_name": "Ones"}, "beta_initializer": {"config": {}, "class_name": "Zeros"}, "beta_constraint": null, "beta_regularizer": null, "trainable": true, "moving_mean_initializer": {"config": {}, "class_name": "Zeros"}, "moving_variance_initializer": {"config": {}, "class_name": "Ones"}, "scale": true, "gamma_constraint": null, "gamma_regularizer": null, "center": true}, "name": "batch_normalization_1", "inbound_nodes": [[["conv2d_1", 0, 0, {}]]], "class_name": "BatchNormalization"}, {"config": {"trainable": true, "activation": "relu", "name": "activation_1"}, "name": "activation_1", "inbound_nodes": [[["batch_normalization_1", 0, 0, {}]]], "class_name": "Activation"}, {"config": {"padding": "same", "trainable": true, "bias_constraint": null, "activation": "linear", "name": "conv2d_2", "strides": [2, 2], "data_format": "channels_last", "kernel_constraint": null, "bias_initializer": {"config": {}, "class_name": "Zeros"}, "filters": 64, "bias_regularizer": null, "use_bias": true, "kernel_initializer": {"config": {"mode": "fan_avg", "seed": null, "scale": 1.0, "distribution": "uniform"}, "class_name": "VarianceScaling"}, "dilation_rate": [1, 1], "kernel_regularizer": null, "activity_regularizer": null, "kernel_size": [3, 3]}, "name": "conv2d_2", "inbound_nodes": [[["activation_1", 0, 0, {}]]], "class_name": "Conv2D"}, {"config": {"momentum": 0.99, "axis": -1, "name": "batch_normalization_2", "epsilon": 0.001, "gamma_initializer": {"config": {}, "class_name": "Ones"}, "beta_initializer": {"config": {}, "class_name": "Zeros"}, "beta_constraint": null, "beta_regularizer": null, "trainable": true, "moving_mean_initializer": {"config": {}, "class_name": "Zeros"}, "moving_variance_initializer": {"config": {}, "class_name": "Ones"}, "scale": true, "gamma_constraint": null, "gamma_regularizer": null, "center": true}, "name": "batch_normalization_2", "inbound_nodes": [[["conv2d_2", 0, 0, {}]]], "class_name": "BatchNormalization"}, {"config": {"trainable": true, "activation": "relu", "name": "activation_2"}, "name": "activation_2", "inbound_nodes": [[["batch_normalization_2", 0, 0, {}]]], "class_name": "Activation"}, {"config": {"padding": "same", "trainable": true, "bias_constraint": null, "activation": "linear", "name": "conv2d_3", "strides": [2, 2], "data_format": "channels_last", "kernel_constraint": null, "bias_initializer": {"config": {}, "class_name": "Zeros"}, "filters": 64, "bias_regularizer": null, "use_bias": true, "kernel_initializer": {"config": {"mode": "fan_avg", "seed": null, "scale": 1.0, "distribution": "uniform"}, "class_name": "VarianceScaling"}, "dilation_rate": [1, 1], "kernel_regularizer": null, "activity_regularizer": null, "kernel_size": [3, 3]}, "name": "conv2d_3", "inbound_nodes": [[["activation_2", 0, 0, {}]]], "class_name": "Conv2D"}, {"config": {"momentum": 0.99, "axis": -1, "name": "batch_normalization_3", "epsilon": 0.001, "gamma_initializer": {"config": {}, "class_name": "Ones"}, "beta_initializer": {"config": {}, "class_name": "Zeros"}, "beta_constraint": null, "beta_regularizer": null, "trainable": true, "moving_mean_initializer": {"config": {}, "class_name": "Zeros"}, "moving_variance_initializer": {"config": {}, "class_name": "Ones"}, "scale": true, "gamma_constraint": null, "gamma_regularizer": null, "center": true}, "name": "batch_normalization_3", "inbound_nodes": [[["conv2d_3", 0, 0, {}]]], "class_name": "BatchNormalization"}, {"config": {"trainable": true, "activation": "relu", "name": "activation_3"}, "name": "activation_3", "inbound_nodes": [[["batch_normalization_3", 0, 0, {}]]], "class_name": "Activation"}, {"config": {"padding": "valid", "trainable": true, "bias_constraint": null, "activation": "linear", "name": "conv2d_4", "strides": [1, 1], "data_format": "channels_last", "kernel_constraint": null, "bias_initializer": {"config": {}, "class_name": "Zeros"}, "filters": 64, "bias_regularizer": null, "use_bias": true, "kernel_initializer": {"config": {"mode": "fan_avg", "seed": null, "scale": 1.0, "distribution": "uniform"}, "class_name": "VarianceScaling"}, "dilation_rate": [1, 1], "kernel_regularizer": null, "activity_regularizer": null, "kernel_size": [3, 3]}, "name": "conv2d_4", "inbound_nodes": [[["activation_3", 0, 0, {}]]], "class_name": "Conv2D"}, {"config": {"momentum": 0.99, "axis": -1, "name": "batch_normalization_4", "epsilon": 0.001, "gamma_initializer": {"config": {}, "class_name": "Ones"}, "beta_initializer": {"config": {}, "class_name": "Zeros"}, "beta_constraint": null, "beta_regularizer": null, "trainable": true, "moving_mean_initializer": {"config": {}, "class_name": "Zeros"}, "moving_variance_initializer": {"config": {}, "class_name": "Ones"}, "scale": true, "gamma_constraint": null, "gamma_regularizer": null, "center": true}, "name": "batch_normalization_4", "inbound_nodes": [[["conv2d_4", 0, 0, {}]]], "class_name": "BatchNormalization"}, {"config": {"trainable": true, "activation": "relu", "name": "activation_4"}, "name": "activation_4", "inbound_nodes": [[["batch_normalization_4", 0, 0, {}]]], "class_name": "Activation"}, {"config": {"padding": "valid", "trainable": true, "bias_constraint": null, "activation": "linear", "name": "conv2d_5", "strides": [1, 1], "data_format": "channels_last", "kernel_constraint": null, "bias_initializer": {"config": {}, "class_name": "Zeros"}, "filters": 64, "bias_regularizer": null, "use_bias": true, "kernel_initializer": {"config": {"mode": "fan_avg", "seed": null, "scale": 1.0, "distribution": "uniform"}, "class_name": "VarianceScaling"}, "dilation_rate": [1, 1], "kernel_regularizer": null, "activity_regularizer": null, "kernel_size": [3, 3]}, "name": "conv2d_5", "inbound_nodes": [[["activation_4", 0, 0, {}]]], "class_name": "Conv2D"}, {"config": {"momentum": 0.99, "axis": -1, "name": "batch_normalization_5", "epsilon": 0.001, "gamma_initializer": {"config": {}, "class_name": "Ones"}, "beta_initializer": {"config": {}, "class_name": "Zeros"}, "beta_constraint": null, "beta_regularizer": null, "trainable": true, "moving_mean_initializer": {"config": {}, "class_name": "Zeros"}, "moving_variance_initializer": {"config": {}, "class_name": "Ones"}, "scale": true, "gamma_constraint": null, "gamma_regularizer": null, "center": true}, "name": "batch_normalization_5", "inbound_nodes": [[["conv2d_5", 0, 0, {}]]], "class_name": "BatchNormalization"}, {"config": {"trainable": true, "function": ["\u00e3\u0001\u0000\u0000\u0000\u0000\u0000\u0000\u0000\u0001\u0000\u0000\u0000\u0005\u0000\u0000\u0000S\u0000\u0000\u0000s#\u0000\u0000\u0000|\u0000\u0000d\u0000\u0000d\u0000\u0000\u0085\u0002\u0000d\u0001\u0000d\u0002\u0000\u0085\u0002\u0000d\u0001\u0000d\u0003\u0000\u0085\u0002\u0000f\u0003\u0000\u0019S)\u0004N\u00e9\u0002\u0000\u0000\u0000\u00e9\u00fe\u00ff\u00ff\u00ffr\u0002\u0000\u0000\u0000\u00a9\u0000)\u0001\u00da\u0001xr\u0003\u0000\u0000\u0000r\u0003\u0000\u0000\u0000\u00fa\u001f<ipython-input-20-dd71587fe413>\u00da\b<lambda>\u0004\u0000\u0000\u0000s\u0000\u0000\u0000\u0000", null, null], "output_shape_type": "raw", "name": "lambda_1", "arguments": {}, "function_type": "lambda", "output_shape": null}, "name": "lambda_1", "inbound_nodes": [[["activation_3", 0, 0, {}]]], "class_name": "Lambda"}, {"config": {"trainable": true, "name": "add_1"}, "name": "add_1", "inbound_nodes": [[["batch_normalization_5", 0, 0, {}], ["lambda_1", 0, 0, {}]]], "class_name": "Add"}, {"config": {"padding": "valid", "trainable": true, "bias_constraint": null, "activation": "linear", "name": "conv2d_6", "strides": [1, 1], "data_format": "channels_last", "kernel_constraint": null, "bias_initializer": {"config": {}, "class_name": "Zeros"}, "filters": 64, "bias_regularizer": null, "use_bias": true, "kernel_initializer": {"config": {"mode": "fan_avg", "seed": null, "scale": 1.0, "distribution": "uniform"}, "class_name": "VarianceScaling"}, "dilation_rate": [1, 1], "kernel_regularizer": null, "activity_regularizer": null, "kernel_size": [3, 3]}, "name": "conv2d_6", "inbound_nodes": [[["add_1", 0, 0, {}]]], "class_name": "Conv2D"}, {"config": {"momentum": 0.99, "axis": -1, "name": "batch_normalization_6", "epsilon": 0.001, "gamma_initializer": {"config": {}, "class_name": "Ones"}, "beta_initializer": {"config": {}, "class_name": "Zeros"}, "beta_constraint": null, "beta_regularizer": null, "trainable": true, "moving_mean_initializer": {"config": {}, "class_name": "Zeros"}, "moving_variance_initializer": {"config": {}, "class_name": "Ones"}, "scale": true, "gamma_constraint": null, "gamma_regularizer": null, "center": true}, "name": "batch_normalization_6", "inbound_nodes": [[["conv2d_6", 0, 0, {}]]], "class_name": "BatchNormalization"}, {"config": {"trainable": true, "activation": "relu", "name": "activation_5"}, "name": "activation_5", "inbound_nodes": [[["batch_normalization_6", 0, 0, {}]]], "class_name": "Activation"}, {"config": {"padding": "valid", "trainable": true, "bias_constraint": null, "activation": "linear", "name": "conv2d_7", "strides": [1, 1], "data_format": "channels_last", "kernel_constraint": null, "bias_initializer": {"config": {}, "class_name": "Zeros"}, "filters": 64, "bias_regularizer": null, "use_bias": true, "kernel_initializer": {"config": {"mode": "fan_avg", "seed": null, "scale": 1.0, "distribution": "uniform"}, "class_name": "VarianceScaling"}, "dilation_rate": [1, 1], "kernel_regularizer": null, "activity_regularizer": null, "kernel_size": [3, 3]}, "name": "conv2d_7", "inbound_nodes": [[["activation_5", 0, 0, {}]]], "class_name": "Conv2D"}, {"config": {"momentum": 0.99, "axis": -1, "name": "batch_normalization_7", "epsilon": 0.001, "gamma_initializer": {"config": {}, "class_name": "Ones"}, "beta_initializer": {"config": {}, "class_name": "Zeros"}, "beta_constraint": null, "beta_regularizer": null, "trainable": true, "moving_mean_initializer": {"config": {}, "class_name": "Zeros"}, "moving_variance_initializer": {"config": {}, "class_name": "Ones"}, "scale": true, "gamma_constraint": null, "gamma_regularizer": null, "center": true}, "name": "batch_normalization_7", "inbound_nodes": [[["conv2d_7", 0, 0, {}]]], "class_name": "BatchNormalization"}, {"config": {"trainable": true, "function": ["\u00e3\u0001\u0000\u0000\u0000\u0000\u0000\u0000\u0000\u0001\u0000\u0000\u0000\u0005\u0000\u0000\u0000S\u0000\u0000\u0000s#\u0000\u0000\u0000|\u0000\u0000d\u0000\u0000d\u0000\u0000\u0085\u0002\u0000d\u0001\u0000d\u0002\u0000\u0085\u0002\u0000d\u0001\u0000d\u0003\u0000\u0085\u0002\u0000f\u0003\u0000\u0019S)\u0004N\u00e9\u0002\u0000\u0000\u0000\u00e9\u00fe\u00ff\u00ff\u00ffr\u0002\u0000\u0000\u0000\u00a9\u0000)\u0001\u00da\u0001xr\u0003\u0000\u0000\u0000r\u0003\u0000\u0000\u0000\u00fa\u001f<ipython-input-20-dd71587fe413>\u00da\b<lambda>\u0004\u0000\u0000\u0000s\u0000\u0000\u0000\u0000", null, null], "output_shape_type": "raw", "name": "lambda_2", "arguments": {}, "function_type": "lambda", "output_shape": null}, "name": "lambda_2", "inbound_nodes": [[["add_1", 0, 0, {}]]], "class_name": "Lambda"}, {"config": {"trainable": true, "name": "add_2"}, "name": "add_2", "inbound_nodes": [[["batch_normalization_7", 0, 0, {}], ["lambda_2", 0, 0, {}]]], "class_name": "Add"}, {"config": {"padding": "valid", "trainable": true, "bias_constraint": null, "activation": "linear", "name": "conv2d_8", "strides": [1, 1], "data_format": "channels_last", "kernel_constraint": null, "bias_initializer": {"config": {}, "class_name": "Zeros"}, "filters": 64, "bias_regularizer": null, "use_bias": true, "kernel_initializer": {"config": {"mode": "fan_avg", "seed": null, "scale": 1.0, "distribution": "uniform"}, "class_name": "VarianceScaling"}, "dilation_rate": [1, 1], "kernel_regularizer": null, "activity_regularizer": null, "kernel_size": [3, 3]}, "name": "conv2d_8", "inbound_nodes": [[["add_2", 0, 0, {}]]], "class_name": "Conv2D"}, {"config": {"momentum": 0.99, "axis": -1, "name": "batch_normalization_8", "epsilon": 0.001, "gamma_initializer": {"config": {}, "class_name": "Ones"}, "beta_initializer": {"config": {}, "class_name": "Zeros"}, "beta_constraint": null, "beta_regularizer": null, "trainable": true, "moving_mean_initializer": {"config": {}, "class_name": "Zeros"}, "moving_variance_initializer": {"config": {}, "class_name": "Ones"}, "scale": true, "gamma_constraint": null, "gamma_regularizer": null, "center": true}, "name": "batch_normalization_8", "inbound_nodes": [[["conv2d_8", 0, 0, {}]]], "class_name": "BatchNormalization"}, {"config": {"trainable": true, "activation": "relu", "name": "activation_6"}, "name": "activation_6", "inbound_nodes": [[["batch_normalization_8", 0, 0, {}]]], "class_name": "Activation"}, {"config": {"padding": "valid", "trainable": true, "bias_constraint": null, "activation": "linear", "name": "conv2d_9", "strides": [1, 1], "data_format": "channels_last", "kernel_constraint": null, "bias_initializer": {"config": {}, "class_name": "Zeros"}, "filters": 64, "bias_regularizer": null, "use_bias": true, "kernel_initializer": {"config": {"mode": "fan_avg", "seed": null, "scale": 1.0, "distribution": "uniform"}, "class_name": "VarianceScaling"}, "dilation_rate": [1, 1], "kernel_regularizer": null, "activity_regularizer": null, "kernel_size": [3, 3]}, "name": "conv2d_9", "inbound_nodes": [[["activation_6", 0, 0, {}]]], "class_name": "Conv2D"}, {"config": {"momentum": 0.99, "axis": -1, "name": "batch_normalization_9", "epsilon": 0.001, "gamma_initializer": {"config": {}, "class_name": "Ones"}, "beta_initializer": {"config": {}, "class_name": "Zeros"}, "beta_constraint": null, "beta_regularizer": null, "trainable": true, "moving_mean_initializer": {"config": {}, "class_name": "Zeros"}, "moving_variance_initializer": {"config": {}, "class_name": "Ones"}, "scale": true, "gamma_constraint": null, "gamma_regularizer": null, "center": true}, "name": "batch_normalization_9", "inbound_nodes": [[["conv2d_9", 0, 0, {}]]], "class_name": "BatchNormalization"}, {"config": {"trainable": true, "function": ["\u00e3\u0001\u0000\u0000\u0000\u0000\u0000\u0000\u0000\u0001\u0000\u0000\u0000\u0005\u0000\u0000\u0000S\u0000\u0000\u0000s#\u0000\u0000\u0000|\u0000\u0000d\u0000\u0000d\u0000\u0000\u0085\u0002\u0000d\u0001\u0000d\u0002\u0000\u0085\u0002\u0000d\u0001\u0000d\u0003\u0000\u0085\u0002\u0000f\u0003\u0000\u0019S)\u0004N\u00e9\u0002\u0000\u0000\u0000\u00e9\u00fe\u00ff\u00ff\u00ffr\u0002\u0000\u0000\u0000\u00a9\u0000)\u0001\u00da\u0001xr\u0003\u0000\u0000\u0000r\u0003\u0000\u0000\u0000\u00fa\u001f<ipython-input-20-dd71587fe413>\u00da\b<lambda>\u0004\u0000\u0000\u0000s\u0000\u0000\u0000\u0000", null, null], "output_shape_type": "raw", "name": "lambda_3", "arguments": {}, "function_type": "lambda", "output_shape": null}, "name": "lambda_3", "inbound_nodes": [[["add_2", 0, 0, {}]]], "class_name": "Lambda"}, {"config": {"trainable": true, "name": "add_3"}, "name": "add_3", "inbound_nodes": [[["batch_normalization_9", 0, 0, {}], ["lambda_3", 0, 0, {}]]], "class_name": "Add"}, {"config": {"padding": "valid", "trainable": true, "bias_constraint": null, "activation": "linear", "name": "conv2d_10", "strides": [1, 1], "data_format": "channels_last", "kernel_constraint": null, "bias_initializer": {"config": {}, "class_name": "Zeros"}, "filters": 64, "bias_regularizer": null, "use_bias": true, "kernel_initializer": {"config": {"mode": "fan_avg", "seed": null, "scale": 1.0, "distribution": "uniform"}, "class_name": "VarianceScaling"}, "dilation_rate": [1, 1], "kernel_regularizer": null, "activity_regularizer": null, "kernel_size": [3, 3]}, "name": "conv2d_10", "inbound_nodes": [[["add_3", 0, 0, {}]]], "class_name": "Conv2D"}, {"config": {"momentum": 0.99, "axis": -1, "name": "batch_normalization_10", "epsilon": 0.001, "gamma_initializer": {"config": {}, "class_name": "Ones"}, "beta_initializer": {"config": {}, "class_name": "Zeros"}, "beta_constraint": null, "beta_regularizer": null, "trainable": true, "moving_mean_initializer": {"config": {}, "class_name": "Zeros"}, "moving_variance_initializer": {"config": {}, "class_name": "Ones"}, "scale": true, "gamma_constraint": null, "gamma_regularizer": null, "center": true}, "name": "batch_normalization_10", "inbound_nodes": [[["conv2d_10", 0, 0, {}]]], "class_name": "BatchNormalization"}, {"config": {"trainable": true, "activation": "relu", "name": "activation_7"}, "name": "activation_7", "inbound_nodes": [[["batch_normalization_10", 0, 0, {}]]], "class_name": "Activation"}, {"config": {"padding": "valid", "trainable": true, "bias_constraint": null, "activation": "linear", "name": "conv2d_11", "strides": [1, 1], "data_format": "channels_last", "kernel_constraint": null, "bias_initializer": {"config": {}, "class_name": "Zeros"}, "filters": 64, "bias_regularizer": null, "use_bias": true, "kernel_initializer": {"config": {"mode": "fan_avg", "seed": null, "scale": 1.0, "distribution": "uniform"}, "class_name": "VarianceScaling"}, "dilation_rate": [1, 1], "kernel_regularizer": null, "activity_regularizer": null, "kernel_size": [3, 3]}, "name": "conv2d_11", "inbound_nodes": [[["activation_7", 0, 0, {}]]], "class_name": "Conv2D"}, {"config": {"momentum": 0.99, "axis": -1, "name": "batch_normalization_11", "epsilon": 0.001, "gamma_initializer": {"config": {}, "class_name": "Ones"}, "beta_initializer": {"config": {}, "class_name": "Zeros"}, "beta_constraint": null, "beta_regularizer": null, "trainable": true, "moving_mean_initializer": {"config": {}, "class_name": "Zeros"}, "moving_variance_initializer": {"config": {}, "class_name": "Ones"}, "scale": true, "gamma_constraint": null, "gamma_regularizer": null, "center": true}, "name": "batch_normalization_11", "inbound_nodes": [[["conv2d_11", 0, 0, {}]]], "class_name": "BatchNormalization"}, {"config": {"trainable": true, "function": ["\u00e3\u0001\u0000\u0000\u0000\u0000\u0000\u0000\u0000\u0001\u0000\u0000\u0000\u0005\u0000\u0000\u0000S\u0000\u0000\u0000s#\u0000\u0000\u0000|\u0000\u0000d\u0000\u0000d\u0000\u0000\u0085\u0002\u0000d\u0001\u0000d\u0002\u0000\u0085\u0002\u0000d\u0001\u0000d\u0003\u0000\u0085\u0002\u0000f\u0003\u0000\u0019S)\u0004N\u00e9\u0002\u0000\u0000\u0000\u00e9\u00fe\u00ff\u00ff\u00ffr\u0002\u0000\u0000\u0000\u00a9\u0000)\u0001\u00da\u0001xr\u0003\u0000\u0000\u0000r\u0003\u0000\u0000\u0000\u00fa\u001f<ipython-input-20-dd71587fe413>\u00da\b<lambda>\u0004\u0000\u0000\u0000s\u0000\u0000\u0000\u0000", null, null], "output_shape_type": "raw", "name": "lambda_4", "arguments": {}, "function_type": "lambda", "output_shape": null}, "name": "lambda_4", "inbound_nodes": [[["add_3", 0, 0, {}]]], "class_name": "Lambda"}, {"config": {"trainable": true, "name": "add_4"}, "name": "add_4", "inbound_nodes": [[["batch_normalization_11", 0, 0, {}], ["lambda_4", 0, 0, {}]]], "class_name": "Add"}, {"config": {"padding": "valid", "trainable": true, "bias_constraint": null, "activation": "linear", "name": "conv2d_12", "strides": [1, 1], "data_format": "channels_last", "kernel_constraint": null, "bias_initializer": {"config": {}, "class_name": "Zeros"}, "filters": 64, "bias_regularizer": null, "use_bias": true, "kernel_initializer": {"config": {"mode": "fan_avg", "seed": null, "scale": 1.0, "distribution": "uniform"}, "class_name": "VarianceScaling"}, "dilation_rate": [1, 1], "kernel_regularizer": null, "activity_regularizer": null, "kernel_size": [3, 3]}, "name": "conv2d_12", "inbound_nodes": [[["add_4", 0, 0, {}]]], "class_name": "Conv2D"}, {"config": {"momentum": 0.99, "axis": -1, "name": "batch_normalization_12", "epsilon": 0.001, "gamma_initializer": {"config": {}, "class_name": "Ones"}, "beta_initializer": {"config": {}, "class_name": "Zeros"}, "beta_constraint": null, "beta_regularizer": null, "trainable": true, "moving_mean_initializer": {"config": {}, "class_name": "Zeros"}, "moving_variance_initializer": {"config": {}, "class_name": "Ones"}, "scale": true, "gamma_constraint": null, "gamma_regularizer": null, "center": true}, "name": "batch_normalization_12", "inbound_nodes": [[["conv2d_12", 0, 0, {}]]], "class_name": "BatchNormalization"}, {"config": {"trainable": true, "activation": "relu", "name": "activation_8"}, "name": "activation_8", "inbound_nodes": [[["batch_normalization_12", 0, 0, {}]]], "class_name": "Activation"}, {"config": {"padding": "valid", "trainable": true, "bias_constraint": null, "activation": "linear", "name": "conv2d_13", "strides": [1, 1], "data_format": "channels_last", "kernel_constraint": null, "bias_initializer": {"config": {}, "class_name": "Zeros"}, "filters": 64, "bias_regularizer": null, "use_bias": true, "kernel_initializer": {"config": {"mode": "fan_avg", "seed": null, "scale": 1.0, "distribution": "uniform"}, "class_name": "VarianceScaling"}, "dilation_rate": [1, 1], "kernel_regularizer": null, "activity_regularizer": null, "kernel_size": [3, 3]}, "name": "conv2d_13", "inbound_nodes": [[["activation_8", 0, 0, {}]]], "class_name": "Conv2D"}, {"config": {"momentum": 0.99, "axis": -1, "name": "batch_normalization_13", "epsilon": 0.001, "gamma_initializer": {"config": {}, "class_name": "Ones"}, "beta_initializer": {"config": {}, "class_name": "Zeros"}, "beta_constraint": null, "beta_regularizer": null, "trainable": true, "moving_mean_initializer": {"config": {}, "class_name": "Zeros"}, "moving_variance_initializer": {"config": {}, "class_name": "Ones"}, "scale": true, "gamma_constraint": null, "gamma_regularizer": null, "center": true}, "name": "batch_normalization_13", "inbound_nodes": [[["conv2d_13", 0, 0, {}]]], "class_name": "BatchNormalization"}, {"config": {"trainable": true, "function": ["\u00e3\u0001\u0000\u0000\u0000\u0000\u0000\u0000\u0000\u0001\u0000\u0000\u0000\u0005\u0000\u0000\u0000S\u0000\u0000\u0000s#\u0000\u0000\u0000|\u0000\u0000d\u0000\u0000d\u0000\u0000\u0085\u0002\u0000d\u0001\u0000d\u0002\u0000\u0085\u0002\u0000d\u0001\u0000d\u0003\u0000\u0085\u0002\u0000f\u0003\u0000\u0019S)\u0004N\u00e9\u0002\u0000\u0000\u0000\u00e9\u00fe\u00ff\u00ff\u00ffr\u0002\u0000\u0000\u0000\u00a9\u0000)\u0001\u00da\u0001xr\u0003\u0000\u0000\u0000r\u0003\u0000\u0000\u0000\u00fa\u001f<ipython-input-20-dd71587fe413>\u00da\b<lambda>\u0004\u0000\u0000\u0000s\u0000\u0000\u0000\u0000", null, null], "output_shape_type": "raw", "name": "lambda_5", "arguments": {}, "function_type": "lambda", "output_shape": null}, "name": "lambda_5", "inbound_nodes": [[["add_4", 0, 0, {}]]], "class_name": "Lambda"}, {"config": {"trainable": true, "name": "add_5"}, "name": "add_5", "inbound_nodes": [[["batch_normalization_13", 0, 0, {}], ["lambda_5", 0, 0, {}]]], "class_name": "Add"}, {"config": {"trainable": true, "size": [2, 2], "data_format": "channels_last", "name": "up_sampling2d_1"}, "name": "up_sampling2d_1", "inbound_nodes": [[["add_5", 0, 0, {}]]], "class_name": "UpSampling2D"}, {"config": {"padding": "same", "trainable": true, "bias_constraint": null, "activation": "linear", "name": "conv2d_14", "strides": [1, 1], "data_format": "channels_last", "kernel_constraint": null, "bias_initializer": {"config": {}, "class_name": "Zeros"}, "filters": 64, "bias_regularizer": null, "use_bias": true, "kernel_initializer": {"config": {"mode": "fan_avg", "seed": null, "scale": 1.0, "distribution": "uniform"}, "class_name": "VarianceScaling"}, "dilation_rate": [1, 1], "kernel_regularizer": null, "activity_regularizer": null, "kernel_size": [3, 3]}, "name": "conv2d_14", "inbound_nodes": [[["up_sampling2d_1", 0, 0, {}]]], "class_name": "Conv2D"}, {"config": {"momentum": 0.99, "axis": -1, "name": "batch_normalization_14", "epsilon": 0.001, "gamma_initializer": {"config": {}, "class_name": "Ones"}, "beta_initializer": {"config": {}, "class_name": "Zeros"}, "beta_constraint": null, "beta_regularizer": null, "trainable": true, "moving_mean_initializer": {"config": {}, "class_name": "Zeros"}, "moving_variance_initializer": {"config": {}, "class_name": "Ones"}, "scale": true, "gamma_constraint": null, "gamma_regularizer": null, "center": true}, "name": "batch_normalization_14", "inbound_nodes": [[["conv2d_14", 0, 0, {}]]], "class_name": "BatchNormalization"}, {"config": {"trainable": true, "activation": "relu", "name": "activation_9"}, "name": "activation_9", "inbound_nodes": [[["batch_normalization_14", 0, 0, {}]]], "class_name": "Activation"}, {"config": {"trainable": true, "size": [2, 2], "data_format": "channels_last", "name": "up_sampling2d_2"}, "name": "up_sampling2d_2", "inbound_nodes": [[["activation_9", 0, 0, {}]]], "class_name": "UpSampling2D"}, {"config": {"padding": "same", "trainable": true, "bias_constraint": null, "activation": "linear", "name": "conv2d_15", "strides": [1, 1], "data_format": "channels_last", "kernel_constraint": null, "bias_initializer": {"config": {}, "class_name": "Zeros"}, "filters": 64, "bias_regularizer": null, "use_bias": true, "kernel_initializer": {"config": {"mode": "fan_avg", "seed": null, "scale": 1.0, "distribution": "uniform"}, "class_name": "VarianceScaling"}, "dilation_rate": [1, 1], "kernel_regularizer": null, "activity_regularizer": null, "kernel_size": [3, 3]}, "name": "conv2d_15", "inbound_nodes": [[["up_sampling2d_2", 0, 0, {}]]], "class_name": "Conv2D"}, {"config": {"momentum": 0.99, "axis": -1, "name": "batch_normalization_15", "epsilon": 0.001, "gamma_initializer": {"config": {}, "class_name": "Ones"}, "beta_initializer": {"config": {}, "class_name": "Zeros"}, "beta_constraint": null, "beta_regularizer": null, "trainable": true, "moving_mean_initializer": {"config": {}, "class_name": "Zeros"}, "moving_variance_initializer": {"config": {}, "class_name": "Ones"}, "scale": true, "gamma_constraint": null, "gamma_regularizer": null, "center": true}, "name": "batch_normalization_15", "inbound_nodes": [[["conv2d_15", 0, 0, {}]]], "class_name": "BatchNormalization"}, {"config": {"trainable": true, "activation": "relu", "name": "activation_10"}, "name": "activation_10", "inbound_nodes": [[["batch_normalization_15", 0, 0, {}]]], "class_name": "Activation"}, {"config": {"padding": "same", "trainable": true, "bias_constraint": null, "activation": "tanh", "name": "conv2d_16", "strides": [1, 1], "data_format": "channels_last", "kernel_constraint": null, "bias_initializer": {"config": {}, "class_name": "Zeros"}, "filters": 3, "bias_regularizer": null, "use_bias": true, "kernel_initializer": {"config": {"mode": "fan_avg", "seed": null, "scale": 1.0, "distribution": "uniform"}, "class_name": "VarianceScaling"}, "dilation_rate": [1, 1], "kernel_regularizer": null, "activity_regularizer": null, "kernel_size": [9, 9]}, "name": "conv2d_16", "inbound_nodes": [[["activation_10", 0, 0, {}]]], "class_name": "Conv2D"}, {"config": {"trainable": true, "function": ["\u00e3\u0001\u0000\u0000\u0000\u0000\u0000\u0000\u0000\u0001\u0000\u0000\u0000\u0002\u0000\u0000\u0000C\u0000\u0000\u0000s\f\u0000\u0000\u0000|\u0000\u0000d\u0001\u0000\u0017d\u0002\u0000\u0014S)\u0003N\u00e9\u0001\u0000\u0000\u0000g\u0000\u0000\u0000\u0000\u0000\u00e0_@\u00a9\u0000)\u0001\u00da\u0001xr\u0002\u0000\u0000\u0000r\u0002\u0000\u0000\u0000\u00fa\u001f<ipython-input-23-08237b3f71e0>\u00da\b<lambda>\n\u0000\u0000\u0000s\u0000\u0000\u0000\u0000", null, null], "output_shape_type": "raw", "name": "lambda_6", "arguments": {}, "function_type": "lambda", "output_shape": null}, "name": "lambda_6", "inbound_nodes": [[["conv2d_16", 0, 0, {}]]], "class_name": "Lambda"}], "input_layers": [["input_1", 0, 0]], "name": "model_3", "output_layers": [["lambda_6", 0, 0]]}, "keras_version": "2.0.6", "class_name": "Model", "backend": "tensorflow"}